…
t to_categorical\n","from keras.preprocessing.image import ImageDataGenerator, load_img\n","import keras\n","\n","\n","vgg_conv = VGG16(weights='imagenet',\n","                  include_top=False,\n","                  input_shape=(224, 224, 3))\n","\n","vgg_conv.summary()"],"execution_count":0,"outputs":[{"output_type":"stream","text":["Model: \"vgg16\"\n","_________________________________________________________________\n","Layer (type)                 Output Shape              Param #   \n","=================================================================\n","input_2 (InputLayer)         (None, 224, 224, 3)       0         \n","_________________________________________________________________\n","block1_conv1 (Conv2D)        (None, 224, 224, 64)      1792      \n","_________________________________________________________________\n","block1_conv2 (Conv2D)        (None, 224, 224, 64)      36928     \n","_________________________________________________________________\n","block1_pool (MaxPooling2D)   (None, 112, 112, 64)      0         \n","_________________________________________________________________\n","block2_conv1 (Conv2D)        (None, 112, 112, 128)     73856     \n","_________________________________________________________________\n","block2_conv2 (Conv2D)        (None, 112, 112, 128)     147584    \n","_________________________________________________________________\n","block2_pool (MaxPooling2D)   (None, 56, 56, 128)       0         \n","_________________________________________________________________\n","block3_conv1 (Conv2D)        (None, 56, 56, 256)       295168    \n","_________________________________________________________________\n","block3_conv2 (Conv2D)        (None, 56, 56, 256)       590080    \n","_________________________________________________________________\n","block3_conv3 (Conv2D)        (None, 56, 56, 256)       590080    \n","_________________________________________________________________\n","block3_pool (MaxPooling2D)   (None, 28, 28, 256)       0         \n","_________________________________________________________________\n","block4_conv1 (Conv2D)        (None, 28, 28, 512)       1180160   \n","_________________________________________________________________\n","block4_conv2 (Conv2D)        (None, 28, 28, 512)       2359808   \n","_________________________________________________________________\n","block4_conv3 (Conv2D)        (None, 28, 28, 512)       2359808   \n","_________________________________________________________________\n","block4_pool (MaxPooling2D)   (None, 14, 14, 512)       0         \n","_________________________________________________________________\n","block5_conv1 (Conv2D)        (None, 14, 14, 512)       2359808   \n","_________________________________________________________________\n","block5_conv2 (Conv2D)        (None, 14, 14, 512)       2359808   \n","_________________________________________________________________\n","block5_conv3 (Conv2D)        (None, 14, 14, 512)       2359808   \n","_________________________________________________________________\n","block5_pool (MaxPooling2D)   (None, 7, 7, 512)         0         \n","=================================================================\n","Total params: 14,714,688\n","Trainable params: 14,714,688\n","Non-trainable params: 0\n","_________________________________________________________________\n"],"name":"stdout"}]},{"cell_type":"markdown","metadata":{"id":"i9KvMfbHVaCh","colab_type":"text"},"source":[""]},{"cell_type":"code","metadata":{"id":"t1ezr0m
…
